DNN/penguin_classifier.pt (torch, 2711 bytes, 6 tensors)

fc1.weight f4 [10, 4]
000000 00 54 75 bb 5e 54 89 3e 16 b3 d2 be 80 66 bc be
       -0.00374341 0.2682218 -0.41152257 -0.3679695
000010 f6 cb 51 be 7e 66 91 be 0d 3e 0b 3e 9f f5 1a 3f
       -0.20487961 -0.28398508 0.13597889 0.6053104
000020 70 bf 35 bd 4c 7b 07 3e ac bb 1a be 70 48 c9 bd
       -0.044372022 0.13230628 -0.15110654 -0.098282695
000030 b8 91 f4 be 52 8b a9 be e8 0e 53 be 00 bb 97 3c
       -0.47767425 -0.33114105 -0.20611155 0.018521786
000040 55 5e 37 3e 57 fe 8f 3e 8c 08 b7 be a3 88 71 be
       0.17907079 0.28123733 -0.35748708 -0.23587279
000050 21 41 cd 3e dd a8 c3 3e eb a7 4e be 9e 18 b5 3e
       0.40088752 0.3821477 -0.20181243 0.35370344
000060 40 0d a5 bd 10 b5 58 3d 4a cd e7 3e ce 7b ed be
       -0.08059168 0.05290705 0.4527381 -0.46383518
000070 31 0b b6 be eb 0a 2a be fb f4 70 be c4 88 c7 3e
       -0.35555413 -0.16605727 -0.23530953 0.3897153
000080 1a ef a5 be c0 b0 6b be 1a da b2 be 76 c2 ef be
       -0.32408983 -0.23016644 -0.34932023 -0.4682805
000090 fb 80 df be a4 6f 4d 3f 33 b4 95 3e 99 ff 33 3e
       -0.43653092 0.80248475 0.29239044 0.17577972

fc1.bias f4 [10]
000000 40 6a d7 3c a3 fa 89 be c0 3e ad 3d 9e 06 ef be
       0.026295781 -0.26949033 0.08459234 -0.46684736
000010 c5 76 c2 be fe 39 da be 26 85 a1 3e 2e ba 81 3e
       -0.3798124 -0.4262237 0.31546897 0.25337356
000020 c8 11 63 be ff 2c 70 3e
       -0.22174752 0.23454665

fc2.weight f4 [10, 10]
000000 ce 19 4f 3e 6f f5 a0 3e 6c 84 00 3e 48 fb 2e 3d
       0.20224687 0.3143725 0.12550515 0.04272011
000010 72 1d 59 3e 12 aa 3e be 98 5d 71 3d aa 0e 7b be
       0.21202639 -0.18619564 0.05892715 -0.24517313
000020 e8 6e 60 be 56 47 27 be c0 84 12 3e 68 a8 24 3e
       -0.21917307 -0.16335806 0.14308453 0.16079867
000030 5f d0 3f be ac a7 c3 3d 18 cd 44 3e 63 06 1c 3e
       -0.18731831 0.09553465 0.19218862 0.15236811
000040 40 d2 45 3c 9c a5 2a 3d 7e e3 48 3e b9 e2 6c 3f
       0.012074053 0.041661844 0.19618031 0.9253345
000050 8c 8a 79 be 8b 01 13 be d8 86 fe 3d 37 26 86 3e
       -0.24369258 -0.14356057 0.12428063 0.2620103
000060 d9 c3 84 3e 09 c2 a5 3e 80 e3 80 3d 11 6b 7b be
       0.2593067 0.323746 0.06293392 -0.24552561
000070 60 4f ee 3c fc 37 2b bf 33 e4 96 be d6 da 02 3f
       0.029090583 -0.668823 -0.29470977 0.5111517
000080 b6 37 76 3e 25 82 a1 be 28 70 72 3d 8c bb 2a bc
       0.2404469 -0.31544605 0.05918899 -0.010420691
000090 a8 26 55 bd 0e d5 d0 bd 44 0d f9 3d c8 1d f7 be
       -0.05203882 -0.10196887 0.12160733 -0.4826491
0000a0 cc 6a ed 3d ca c1 23 3e c2 cf 67 3e 60 28 f2 3d
       0.115926355 0.15991893 0.22637847 0.11824107
0000b0 25 3f a0 be 2a 0f 52 be d2 af 21 3e 00 8d 87 3d
       -0.31298175 -0.20513597 0.15789726 0.066186905
0000c0 ca 9a 7c be d4 75 3a be bf 50 98 3e e6 2d 02 3f
       -0.24668422 -0.1820901 0.29749104 0.50851285
0000d0 45 31 0d be ee ff a2 bd e1 d2 a3 be eb e7 c0 bd
       -0.13788326 -0.07958971 -0.31996825 -0.09419235
0000e0 7c da 73 be b9 23 5a be d0 bc 8e bc 4a d3 a0 be
       -0.23813814 -0.2130269 -0.017424017 -0.314112
0000f0 eb 9c 04 be 5a 25 40 3e 32 0e 45 be 39 e9 92 3e
       -0.12950484 0.18764248 -0.19243696 0.2869356
000100 72 e9 5d 3e e7 88 88 be a2 2f a1 bd a0 c8 69 3c
       0.21671084 -0.26666948 -0.07870413 0.014269024
000110 28 fb 3c 3d 2c 9a 99 3d 6c 26 fe 3d 70 2c 9b 3c
       0.04613796 0.07500109 0.12409672 0.018942088
000120 ef ff 1d be 0c 3a 19 3e 87 4f 9b be bb ed 3f be
       -0.15429662 0.1496355 -0.30334112 -0.1874303
000130 4c 1f a2 bd 57 bc 1d be 6c 90 e2 bd 2d b4 84 be
       -0.07916126 -0.15403877 -0.110627025 -0.25918713
000140 fc c2 89 bd 3a c2 ac 3e b2 f4 52 be e0 f1 84 bc
       -0.067266434 0.33741933 -0.20601156 -0.016228616
000150 c0 01 56 3e 12 e9 03 be 60 fe 0f 3c 27 c0 57 3a
       0.20899105 -0.12881878 0.008788675 0.0008230232
000160 b4 11 83 3d 92 b4 75 3e 09 5e 99 3e 5e a4 4d 3e
       0.06399861 0.23994663 0.29954556 0.20082232
000170 dd b7 99 3e 20 5a bb bc 2c 72 91 be ae 83 19 be
       0.3002309 -0.022870123 -0.2840742 -0.14991638
000180 26 7d 5c 3e 80 58 06 bb c2 f3 20 be 1c 25 78 be
       0.21532115 -0.0020499527 -0.15717986 -0.24232906

fc2.bias f4 [10]
000000 c3 85 97 be a6 c0 06 3e 43 35 8c be 22 33 9c 3d
       -0.2959424 0.13159427 -0.27384385 0.0762694
000010 a4 11 2f 3e 97 3c ee be ca fd 49 3e da 63 7d be
       0.17096573 -0.465306 0.19725719 -0.24745122
000020 49 8c c2 bd 8d 4c 03 be
       -0.094994135 -0.1282217

fc3.weight f4 [3, 10]
000000 10 7d 79 bd 61 d6 a7 3e 7e fa 7e bf 0b 56 8a bf
       -0.060910285 0.32780746 -0.9960097 -1.0807508
000010 d8 ae 4a bd d6 26 b7 be 1f 1a 13 be a0 f6 f3 3d
       -0.04948315 -0.35771817 -0.14365433 0.11912274
000020 47 e1 46 3e 10 d4 ae bc b5 62 8e 3e bd 5e f4 be
       0.19421874 -0.021341354 0.27809682 -0.4772853
000030 7d 7b c9 3d 87 15 55 3f bf 1d 92 be 8f ad 68 3f
       0.09838007 0.83235973 -0.2853832 0.9088983
000040 88 77 15 bd e2 8d 10 be 1e 19 c7 3e 6c d6 82 be
       -0.036490947 -0.14116624 0.3888635 -0.25554216
000050 20 fd 0a 3d af 45 46 be 6f da 83 3f 5d 25 77 be
       0.033932805 -0.1936252 1.0301036 -0.24135347
000060 8e 98 1b 3e 2c 13 2c bf 5e bd 9b bd 78 33 88 bd
       0.15194914 -0.67216754 -0.07604478 -0.06650442
000070 35 cd 91 bf 5e 75 2f 3e
       -1.1390749 0.17134616

fc3.bias f4 [3]
000000 4a 38 06 3f 2f fa c5 bd 6c 9b 08 be
       0.5242964 -0.09666859 -0.13340539
